authsysproject/chatbot/data.pth (torch, 7487 bytes, 6 tensors)

l1.weight f4 [8, 106]
00000000: 2be7 4fbe fcac 0d3d f4f3 eabc 4edf 643f
00000010: 7120 e3bd c5f2 0abf 3915 7abd b434 4dbe
00000020: 6639 0e3f 3bd5 0e3f 1040 a73e e70a 203f
00000030: 8b3a 433f 4bb5 34be 5278 873e cd04 6cbe
00000040: d4c3 19be 56e5 debe b1a8 99bd 4b3e 1ebf
00000050: 52e7 babd 548d 443f 2489 933f d032 313f
00000060: f980 91be 42ae 4a3f 3502 3b3f b63f 9cbe
00000070: f791 27be 30ac 7a3f 4b96 34bc 6419 2cbf
00000080: 56ac b13f 344c f0bd fb6f 0e3f 7b1c 27bf
00000090: 1f5f cc3e 8818 44be 394e d23e a01e 0f3f
000000a0: 1160 c0bd 0f46 41be 9b2a 343f 9b0c 1ebf
000000b0: f8e4 88be 4a41 42be 194f ebbd 7d38 2cbf
000000c0: 49cb 6ebf fb62 9c3f fda0 eebd fcb0 943f
000000d0: 75bb 943f 697f 2a3f 3342 c5bd ad3d aebe
000000e0: 399e 2cbf f6fc f2bd a581 a0be ca00 e43e
000000f0: 0dfa ab3e afa3 14be 81df a7be 943c 423f
00000100: 982e 64be eb44 d03e 98cd 8c3d c8d4 ae3e
00000110: 7a5e a53e a437 07be 9e03 c7be 47b6 73be
00000120: 83f5 f43e 8177 66be 051c 2cbf 60b0 80be
00000130: 3594 35be 89a5 2fbc ecae e6be 7ad8 fc3d
00000140: 1efc b8be 71bd 3d3f a4e5 eabd bec1 56be
00000150: b460 c9bd 1c47 c8be 4bcf 88be 91cf 17be
00000160: 3e6a 8dbe 8b99 5dbe cbee 223f cbfe b93e
00000170: 2a00 a6be ae76 14be 9067 3cbd f808 003f
00000180: 437a b93e b6f9 1fbd 3833 bbbe edb7 ce3e
00000190: ef3d 22bf 4e8b 263f 3266 4ebe 5e4e 2cbf
000001a0: a2db 14be 5e95 503d 7c50 303f dd38 21be
000001b0: 87b3 a53e 7ac1 283d 7788 4f3f 45fd 99be
000001c0: 28b2 09b7 37f7 a33c bdc9 14bf 9299 0b3f
000001d0: 313f 143f 16ed 1d3f 764d 223f 17f5 d5bd
000001e0: 62bd b9bd c54e 513d 84bb 91be bc2e 50be
000001f0: 6460 77be 2598 14bf 5226 b83d 1697 463f
00000200: 1e59 b6bd d1a8 4c3f 2dfd bebd bda2 2e3f
00000210: aaac 0f3f 0c4f 4cbd a517 d93e 93a6 0cbe
00000220: 3636 5dbe 10d7 ef3c 22f6 8c3f ae07 093f
00000230: a3ee 14bf dcc8 d53e f96a 953c 7576 a0bb
00000240: cf13 97be ac45 88bd 677c 4abe cb55 eb3e
00000250: b870 203f de9c 14bf fcbe 5e3f 2295 20bc
00000260: 84a1 83bd aece 26bc a3cd fbbe ee99 543f
00000270: a8c2 043f f2ab 653f 9f7c 4a3f a6dc e93e
00000280: 200d 82bc 174c 2bbe 1907 15bf 3365 e0bd
00000290: d5d4 8dbe 0a14 0c3f 6b7d b5be 61cc 6fbe
000002a0: eeb7 dbbe 04cb 533f 1718 5f3f 2a67 19bf
000002b0: e5ad b83e 5cb3 68be 0acd 5cbe fda8 0b3f
000002c0: 8cc9 d03d 28a6 4e3e d4bb 14bf 4ebe 0d3f
000002d0: 84b4 91be da0a 123f 1310 5d3f fd5c 42bd
000002e0: 4faa bf3e 45a3 0abf d1c3 9bbe 4fe0 4c3f
000002f0: 2f52 c93e e00b dabe 3b3d ee3b 56fb 43be
00000300: 0ed5 93be 9b4e 113f afab 8c3e 3669 333f
00000310: 22b8 14bf a63c bbbe 0daa ac3f e1ad 2f3f
00000320: bc2e 4bbe cc6f b83e b865 94bd 3da6 3d3d
00000330: 2818 33be 736a 92be 52b4 94be a53e e3bc
00000340: 3280 4cbe 5e72 733f ba1d 193f 4091 9b3e
00000350: 99e0 9abe 703e 89bb 0bd0 383d 7b6e 233f
00000360: c1b3 02be d6a7 eabe ee29 a5bd 607c a6bc
00000370: 2363 423f d661 813e 0eaf 96bd 5911 8b3e
00000380: e033 b5be ca2f bbbe 895a 823e beee fcbe
00000390: 39a9 56bd 8a6c 4cbe 1195 41be 2e89 833f
000003a0: 0323 81bc fc8d b2be 53dc 6b3f d7b4 f2bd
000003b0: 30da 9fbe c575 88be 00b2 d53e c8cf 91be
000003c0: 714f 5bbe bc5a 483f 8020 06bd 3b55 9dbe
000003d0: 74b7 0fbf 72ba 2dbe e1ba 3b3f 7bfd 2bbf
000003e0: 02c5 aa3e 40bd a7bd 2c6a 033f 5429 0d3f
000003f0: b5d4 bc3c 3538 ecbd d1b0 813e 49c6 813f
-0.20303027 0.0345888 -0.028680779 0.89403236 -0.11090172 -0.54276687 -0.061055396 -0.20039636
0.55556333 0.55794114 0.32666063 0.62516636 0.76261204 -0.17647283 0.26458985 -0.23048706
-0.15016109 -0.43534344 -0.075028785 -0.618138 -0.09126152 0.7677815 1.1526227 0.6921816
-0.2841871 0.79172146 0.7305024 -0.30517358 -0.16364275 0.9791899 -0.011022161 -0.67226243
1.3880718 -0.117332846 0.5563962 -0.6527783 0.39916322 -0.19149983 0.41075304 0.55906105
-0.09393323 -0.18874381 0.7037751 -0.61737984 -0.2673719 -0.18970218 -0.11489696 -0.67273694
-0.9327894 1.2217706 -0.116518 1.1616511 1.1619707 0.6660066 -0.09631767 -0.3403143
-0.6742893 -0.11864655 -0.3134891 0.44531852 0.3358921 -0.14515565 -0.32787707 0.75873685
-0.22283399 0.4067758 0.068751514 0.34146714 0.32298642 -0.13204819 -0.38869947 -0.23800002
0.4784356 -0.22506525 -0.67230254 -0.25134563 -0.17732318 -0.010720619 -0.4505533 0.12345977
-0.3612985 0.7411719 -0.11469582 -0.20972344 -0.09832898 -0.39116752 -0.26720652 -0.14825274
-0.2762012 -0.21640603 0.6364562 0.36327204 -0.32422 -0.14498398 -0.045997202 0.50013685
0.3622609 -0.039056502 -0.36562514 0.403747 -0.63375753 0.6505631 -0.20156172 -0.6730708
-0.14536908 0.050923698 0.6887281 -0.15744348 0.3236353 0.04120014 0.81067604 -0.30076042
-8.207317e-06 0.020015342 -0.5812033 0.54531205 0.5790892 0.6168989 0.63399446 -0.10447138
-0.09069325 0.05110051 -0.28463376 -0.20330328 -0.24157864 -0.58044654 0.08991684 0.7757429
-0.089037165 0.79945093 -0.09325633 0.6821707 0.5612284 -0.049880072 0.42400852 -0.13735418
-0.21602711 0.029277354 1.1012614 0.53527343 -0.5817663 0.41754806 0.018239485 -0.0048969337
-0.295073 -0.06653914 -0.19774018 0.45963892 0.62671995 -0.5805186 0.8701017 -0.009801181
-0.06427291 -0.010181112 -0.49180326 0.8304738 0.5185952 0.8971549 0.79096407 0.45676154
-0.0158754 -0.16728245 -0.58213955 -0.10956802 -0.2770144 0.5471808 -0.3544725 -0.23417808
-0.42913765 0.8273165 0.87146133 -0.5992304 0.3607017 -0.2272467 -0.21562591 0.5455473
0.10194692 0.20180571 -0.580991 0.55368507 -0.28458035 0.5704781 0.8635265 -0.04745196
0.37434623 -0.5415538 -0.30422834 0.8002977 0.39320514 -0.42587185 0.007270483 -0.19138846
-0.28873485 0.5676057 0.27474734 0.70082414 -0.58093464 -0.3656971 1.3489395 0.68624693
-0.19842046 0.36022794 -0.07245964 0.046301115 -0.17489684 -0.2859684 -0.29043823 -0.027739832
-0.19970778 0.95096385 0.59810984 0.30384254 -0.3024948 -0.0041883513 0.04512028 0.63840455
-0.12763883 -0.45831174 -0.08064638 -0.020322978 0.7593252 0.25269955 -0.07357608 0.27161673
-0.3539114 -0.36559898 0.25459698 -0.49400896 -0.052407477 -0.1996328 -0.1890452 1.0276239
-0.015763765 -0.3487395 0.92133063 -0.11850899 -0.3122115 -0.2665235 0.41737366 -0.28478837
-0.21417023 0.7826345 -0.03274584 -0.30729088 -0.561393 -0.16965654 0.7333203 -0.67183656
0.3335343 -0.081903934 0.5133388 0.55141187 0.023050645 -0.11534158 0.25330213 1.0138637

l1.bias f4 [8]
00000000: 15c9 2a3f c635 143f 89ad 313f 62f1 163f
00000010: 5273 433f 4356 e33e 2bdb 4d3f 03da 4d3f
0.66713077 0.5789455 0.6940542 0.5896207 0.7634784 0.4440175 0.8041255 0.80410784

l2.weight f4 [8, 8]
00000000: 603a 383d 5010 b33c ee0a 41be ac6b 17be
00000010: b819 673d 1e22 80be eddc aebe 4465 90be
00000020: a950 76bf d0f4 04bd 43a2 e9be f97c 8dbf
00000030: 07d6 9c3f 1602 7f3f e419 d63f 2fb0 123f
00000040: e6fd 993f 3745 fe3f 2293 52bf e2f9 bf3f
00000050: 9b38 4b3f 2586 b93f d5f7 983f a754 b0bf
00000060: d76e cb3f ac04 443e ff97 aa3f 21db f53d
00000070: 5bc2 963f bcce b9bf c671 12bf a834 cb3f
00000080: b60c 7a3e e743 cdbf 451f ad3f 6229 913f
00000090: 2c32 823f 14ce 553f 7454 f63e 7fec 4dbf
000000a0: c90f b83d 7cf3 30be 01c1 b0be d106 9bbd
000000b0: 1af7 7bbe 2c56 0dbd 2494 833e 9ce9 ebbd
000000c0: 7ff2 e2bd 02b9 933d bff1 713f 1c0c 98bf
000000d0: 0f94 1bbf 7078 48be a321 633f 63a5 593f
000000e0: d319 2dbe a961 96be 5589 2ebf 56c2 bb3f
000000f0: 6caa 413f f7c1 843f 2b91 97bf 002d cc3f
0.044977546 0.021858364 -0.18851826 -0.14787167 0.05642101 -0.2502603 -0.34152928 -0.2820226
-0.9621683 -0.032460034 -0.45631608 -1.1053764 1.2252816 0.9961256 1.6726651 0.57300085
1.2030609 1.9864873 -0.82255757 1.4998133 0.7938325 1.4494063 1.1950632 -1.3775834
1.5893201 0.19142407 1.3327636 0.12004686 1.1778063 -1.4516215 -0.57204854 1.5875444
0.24418911 -1.6036347 1.3525168 1.1340754 1.0171561 0.83517575 0.48111308 -0.8043899
0.08987386 -0.17280382 -0.3452225 -0.075696595 -0.2460598 -0.034506008 0.2569896 -0.11519167
-0.11081409 0.07213022 0.945095 -1.1878695 -0.60772794 -0.19577193 0.887232 0.85017985
-0.16904382 -0.29371384 -0.681783 1.4668682 0.7565067 1.0371693 -1.1841177 1.5951233

l2.bias f4 [8]
00000000: 4332 9bbe 048d 613f cdc1 8dbd 39c1 e43e
00000010: eacd 10bd 9f36 bfbe 560b e43e d957 093f
-0.30311784 0.881058 -0.0692173 0.44678667 -0.035352625 -0.3734636 0.445399 0.5364967

l3.weight f4 [10, 8]
00000000: 486f 453d c72f 743f 3b4f c2bf 6ce5 613e
00000010: b7ef f8bf a154 b8be 4372 bfbf 0e55 813f
00000020: 468d 38be b7ef 3c3f b1d4 e3bd 8cab 9cbf
00000030: ec45 f8bf fbcf 74be 0ffa 793f 4ab1 98bf
00000040: 6a6e 393e 9773 e2bf 1090 a5bf 7dde 5f3f
00000050: 3481 203e dc7a 70be 876b c7bf a38b 0a3f
00000060: c8ee 093d 9909 d0be 21f6 07be f886 973e
00000070: bc18 153f 9d1a aabe d5d3 0cc0 704c 2fbf
00000080: 79f5 903e 026d 213f c837 db3e 77ed cebf
00000090: 78f8 59bf 81f7 d0bd bd92 96bf 90ea e7be
000000a0: 36b6 9fbe b539 acbf 1542 163e 4c02 033f
000000b0: 093a ebbf 10dd a9bd 7905 33c0 3f05 fd3e
000000c0: 6883 10be 33c4 803e c652 07c0 e05a 1f3e
000000d0: c24e 1c3f 19ed a43e 14a6 ea3d 4db9 96bf
000000e0: 009d ed3d 3a7b f0be 93dc f7bd 2339 613f
000000f0: a579 09c0 bfc8 bbbe a828 7ebe dd7b c3bf
00000100: b84f a5bd e7a2 acbd f327 cdbd ecfa 76bf
00000110: 2d1c 063f f3da a23c 8f21 61c0 95eb 1a3f
00000120: a815 18bd 644b b9bf f2e0 3c3f 9f9a fabf
00000130: b713 f4bf 4270 dc3d 31f4 07c0 e143 783f
0.04820183 0.953854 -1.5180429 0.22060174 -1.9448155 -0.36002067 -1.4956745 1.0104082
-0.18022642 0.73803276 -0.11124552 -1.2239852 -1.9396338 -0.23907463 0.97647184 -1.1929104
0.18108526 -1.7691525 -1.2934589 0.87448865 0.15674287 -0.23484367 -1.557969 0.5411932
0.033674985 -0.40632322 -0.13277484 0.2959516 0.58240867 -0.3322343 -2.2004292 -0.6847601
0.2831228 0.6305696 0.42815995 -1.6166219 -0.8514476 -0.102034576 -1.1763531 -0.45296144
-0.31193703 -1.3455111 0.14673646 0.5117538 -1.8377086 -0.082941175 -2.797209 0.49418065
-0.14112628 0.25149688 -2.114427 0.1556201 0.61057675 0.3221214 0.11457458 -1.1775299
0.11602211 -0.46969014 -0.12102618 0.8797781 -2.1480496 -0.36676595 -0.24820197 -1.5272175
-0.08071846 -0.08429509 -0.10017385 -0.96476626 0.5238674 0.019879794 -3.5176733 0.6051572
-0.037130028 -1.4476132 0.7378074 -1.9578437 -1.9068516 0.10763599 -2.1242793 0.96978575

l3.bias f4 [10]
00000000: e45d 6e3d c926 1b3f 2c09 76be b380 98be
00000010: 94a1 1d3d 1747 96be 3c2f e33e d41d fb3c
00000020: 0952 aebe 2aaf 583e
0.05819501 0.60606056 -0.24026936 -0.2978569 0.03848417 -0.29351112 0.44371974 0.030653872
-0.34046963 0.2116057
