chatbot/data.pth (torch, 7487 bytes, 6 tensors)

l1.weight f4 [8, 106]
00000000: cb96 babd 5dc4 4b3e d8c0 053e 822b 0a3f
00000010: ebea abbd 5747 de3e 081d de3e 799a a33e
00000020: 0537 2bbf 1414 8ebe 81a9 70be 8849 c3be
00000030: 91ae 3a3f ab28 033f e68b 603f 0244 45bf
00000040: 5b1b ee3e 7515 aa3e 2383 023f 67c8 313a
00000050: 5f8c 3d3f 46f0 483f 2618 853f af99 473f
00000060: 03b7 3d3f 3ea8 523f 2bc0 9fbe 6225 a3be
00000070: b349 8abd ffae 7a3f 2ae4 f03d 8f06 563f
00000080: b1ff 943f 58ab 92bb 0c17 2bbf 5c4e 553e
00000090: 22a1 ccbe 7ddd 983e e49a a4be ecf1 143f
000000a0: 992c d13d db5f 32bd b9f4 b6be 53f2 883c
000000b0: 8f1d 703d a166 aa3e 545c d23e b814 2bbf
000000c0: 40c1 df3e a81a 2bbf 7038 333d a71d 2bbf
000000d0: 5e22 2bbf bf59 a6be 56cd ef3e d871 9e3d
000000e0: 3eef 523f 78b0 fa3d 873b 183f 3226 79be
000000f0: 1257 a2be 0759 2d3f 2194 df3d 4356 4f3f
00000100: 1716 2abe d245 91be 7c89 1c3e fa1f b4be
00000110: e734 adbe 2f1e babd 9ef6 85bf bfe4 1a3f
00000120: c51d 2bbf abd8 47bd d930 2bbf 78b3 be3e
00000130: 5b85 6f3d cd0d 163f 3f35 363e d7bc 1f3f
00000140: f5e8 473f 69cd 503f 3ee0 70be 7b26 d03a
00000150: ff24 0b3f eb30 c03e ea97 ee3e 2dc8 9cbd
00000160: e1e1 843d de5d ebbd 631d 2bbf 2d35 a9be
00000170: 4d96 fcbd 3bc7 08bd 5955 f93d 5237 17be
00000180: 174d acbd 7ca2 34bf 593c b3be 80f2 b1be
00000190: 192b 2bbf 3a29 1a3f 42ef 5e3f 753f 483f
000001a0: fdd7 603b a148 1f3d 922b 2ebe da05 f2bd
000001b0: 02ef 13bd 1a16 223f 1816 2abe fd5a 91be
000001c0: 595f debd 7784 08be ba8c 3fbe 32f0 0d3f
000001d0: 9f06 943e 6c83 f03e 9258 ddbd e630 fdbd
000001e0: df2e fe3d 1126 3a3f 0880 a1be 2497 823e
000001f0: 65ae 09be 545d 523f a456 ffbd a3a6 16be
00000200: e20c 263f 416b eebd 7765 f23e 1206 f3bd
00000210: cab5 ed3e ca14 1c3f 610d d03e 99d2 343f
00000220: c54f f7bc 901d 07bf 5e65 dcbe bb87 4d3e
00000230: a457 70be 5d4c 51bd 4c3b 263d c079 e5bd
00000240: ffd0 eebd cb11 083f c696 1fbe df6c 973e
00000250: 5043 ef3e d896 513f d42c 133e 8d56 2abe
00000260: 9be0 95bd b44f 19be 836a 26bf e52d 673f
00000270: 4d3e 78be 486c 643f 2835 453f 0d4f 1c3f
00000280: de52 80bd 0974 8bbe 53f8 06bf fc31 f9bd
00000290: 561d 85be 4ce5 003f 6218 93bd db1f 0abe
000002a0: f709 cc3e 2cc2 40be f328 ec3e 5cb3 01be
000002b0: aaed a8bd 9a6d 92bd 48e4 1e3d 1b61 8a3e
000002c0: c4f9 953f ae90 2cbf 0946 67be be38 743e
000002d0: 2eb3 6c3f 71da b93d 88c5 533d e0dd 923d
000002e0: 388d 72bd 338c a83d b23a 8abe c90a 6bbe
000002f0: 7846 8d3e bb4e d33e aaf6 7cbc 7b84 bbbe
00000300: 955c 6fbe 5bf9 423e d9cf 20bc 7b7f b93e
00000310: 3a45 24be 591c 43bc 5880 2bbf 5010 ebbd
00000320: 0986 a33a 1ff1 0c3f 4736 863e f04e b73d
00000330: 98fd 2c3f 6cbb 02bc de4b 723f 3424 c13e
00000340: e493 f7bd 37ae 01bf 3d8b 4c3e 957d 153e
00000350: be05 e3bd 8ba1 9f3e 337e c4bc d83c 5e3e
00000360: 751f 64bf 27eb 013f 6a8f ba3e 22fc 8e3e
00000370: f803 cdbe 78e1 e13e 3bb9 1d3c 45d8 153f
00000380: 8ce8 8bbe 462c 183e 9514 483f 075a 0e3f
00000390: 95c9 21be 1553 903e 52de a63e 984f fdbe
000003a0: 47c9 2abf dcb3 90be 0a1f 383f d098 84be
000003b0: c238 fa3e 4af7 58be 3bdd 183f 7d47 d23e
000003c0: c2dd 9c3e 9832 423f 92f2 a23e 95c7 fdbe
000003d0: e65e fdbe 92f9 81bd 7838 b1be 28c1 c3bd
000003e0: be0e 3abe 5835 953e b76b 4cbe 7e84 e53e
000003f0: 04cc a83e fe50 873d a4c2 233f f060 fdbe
-0.09110793 0.19899125 0.13061845 0.5397264 -0.083944164 0.43413803 0.43381524 0.3195379
-0.6688083 -0.27749693 -0.2350216 -0.38142037 0.7292262 0.5123393 0.8771347 -0.77056897
0.46505246 0.33219495 0.5098135 0.00067818764 0.74042314 0.7849163 1.0397995 0.7796888
0.7410738 0.8228797 -0.312013 -0.31864458 -0.06752338 0.9792327 0.11762269 0.8360376
1.1640531 -0.004475992 -0.6683204 0.20830673 -0.39966685 0.29856482 -0.32149422 0.58181643
0.102135845 -0.043548446 -0.35733584 0.016717112 0.05862194 0.33281425 0.41086066 -0.6682849
0.43702126 -0.6683755 0.043754995 -0.6684212 -0.66849315 -0.32490346 0.46836346 0.07736558
0.82396305 0.1224069 0.5946583 -0.24330977 -0.31707054 0.6771397 0.10916925 0.80991
-0.16609989 -0.2837358 0.15286821 -0.35180646 -0.33829424 -0.09087788 -1.0465887 0.6050529
-0.668423 -0.048790615 -0.6687141 0.372463 0.058476787 0.5861481 0.1779375 0.6239752
0.7808984 0.8156343 -0.23523042 0.0015880609 0.54353327 0.3753732 0.46600276 -0.07655368
0.064883955 -0.11492513 -0.66841716 -0.33048382 -0.12333355 -0.033393126 0.12174482 -0.14767197
-0.08413141 -0.7056043 -0.3500698 -0.34755325 -0.66862637 0.60219157 0.8708383 0.7822183
0.0034308427 0.038887624 -0.17008808 -0.11817522 -0.036116607 0.63314974 -0.1660999 -0.2838973
-0.1085803 -0.13331781 -0.18706027 0.55444634 0.28911301 0.46975267 -0.10807909 -0.12362842
0.12411284 0.72714335 -0.31542993 0.25505936 -0.13445432 0.8217366 -0.12467697 -0.14712004
0.6486341 -0.11641551 0.47343037 -0.11866392 0.46427757 0.6096922 0.40635207 0.70633847
-0.030189404 -0.52779484 -0.43046087 0.20071308 -0.23470932 -0.051098216 0.040583894 -0.112048626
-0.116609566 0.5315215 -0.15584859 0.2957525 0.46731043 0.81870794 0.1437257 -0.16634579
-0.07318231 -0.1497181 -0.65006274 0.90304404 -0.24242516 0.89227724 0.77034235 0.6105812
-0.06265806 -0.27236965 -0.5272266 -0.12167737 -0.25998944 0.5034988 -0.07182385 -0.13488714
0.39851353 -0.1882407 0.46124992 -0.12666076 -0.08248456 -0.07149811 0.038791925 0.2702721
1.1716847 -0.67408264 -0.2258531 0.2384977 0.92460907 0.090748675 0.051702052 0.071712255
-0.059216708 0.08229866 -0.26997906 -0.22953333 0.27592826 0.41271004 -0.015439669 -0.36624512
-0.23375161 0.19040434 -0.00981518 0.36230072 -0.16042033 -0.011908614 -0.6699271 -0.11477721
0.0012475859 0.5505542 0.26213285 0.08950603 0.67574453 -0.007979255 0.94647014 0.37722933
-0.12088755 -0.50656456 0.1997499 0.14598687 -0.110850796 0.31177935 -0.023985958 0.21702898
-0.891105 0.5074944 0.3643754 0.27926737 -0.4004209 0.44117332 0.009626682 0.58533126
-0.27325857 0.14860639 0.78156406 0.5560612 -0.15799554 0.28188387 0.32591492 -0.49474788
-0.66713375 -0.28262222 0.7192236 -0.25897837 0.48871428 -0.21188083 0.5971257 0.41070166
0.30637938 0.7585845 0.3182569 -0.49566332 -0.49486464 -0.0634643 -0.34613395 -0.09558326
-0.18169686 0.2914226 -0.19962965 0.44827646 0.32968152 0.06607245 0.63968873 -0.4948802

l1.bias f4 [8]
00000000: 682a 2b3f 9f1f 063f 9151 fa3e 0b19 bc3e
00000010: 6295 663f 138b e93e d582 c83e bc0d 433f
0.6686158 0.52392 0.48890355 0.36737856 0.9007169 0.45613918 0.39162317 0.7619283

l2.weight f4 [8, 8]
00000000: 11ce 8ebe 3776 813f 78fb 733e 6eea a93f
00000010: b9e3 7a3f 3611 42bf 3ebd 16bf e88e 44bf
00000020: f2f7 81bf 07d2 ce3f 7536 a03f a818 b6be
00000030: 8064 9f3e 4aca 933f 0f0d 653f f624 963f
00000040: 8409 8c3f 2b5d cb3f c5c0 b93f b17b 433f
00000050: efc3 41bf eb0b c83f dd5b 8f3f 3bb0 793e
00000060: e936 193f 22e1 85bf e715 e1be 108d 41bf
00000070: edb8 513f 176c 873f 0044 323f e317 b73f
00000080: 3c0f 723f b968 bebe 343e d6bf 533e c13e
00000090: 8cd1 403f ed97 9a3e 098f d2be 9293 a53f
000000a0: 86a6 ba3f 1d42 07be 7146 943f 3591 68bf
000000b0: 8c7d 7e3f f1ba 8e3f 687f 9c3e 7706 9cbf
000000c0: a328 173e 72db 39bf ba91 003f 706f 35bf
000000d0: 0cfd a23f 6aa2 c23e 280b 093f cf0b 0ebf
000000e0: f92e 703f 6703 fa3e d30d a53d f305 db3e
000000f0: c1db 283f a0b8 6fbf 24fd 8cbf 3d8f 0e3f
-0.2789159 1.0114201 0.23826396 1.3274667 0.9800373 -0.7580751 -0.5888251 -0.7678056
-1.0153792 1.6157845 1.2516619 -0.35565686 0.31131363 1.1546109 0.8947305 1.173003
1.0940404 1.5887808 1.4511954 0.76360613 -0.75689596 1.5628637 1.119991 0.24383633
0.5984941 -1.045933 -0.43962023 -0.7560587 0.819228 1.0579861 0.6963501 1.4304165
0.94554496 -0.37189272 -1.6737733 0.37742862 0.75319743 0.30194035 -0.41124752 1.293566
1.4582069 -0.13208814 1.1583997 -0.9084657 0.9941032 1.11508 0.30565953 -1.2189473
0.14761595 -0.7260047 0.5022236 -0.70873165 1.2733474 0.38014537 0.5353265 -0.5548677
0.93821675 0.4883072 0.080592774 0.42777976 0.6596032 -0.9364109 -1.1014752 0.55687314

l2.bias f4 [8]
00000000: b575 633f 5283 3f3e afbf 373e 1c2d 213e
00000010: 4ae7 4d3f b184 5c3e 4c3c 183f d6ed 3c3f
0.8885148 0.18702438 0.17944215 0.15739864 0.80431044 0.21534993 0.59467006 0.7380041

l3.weight f4 [10, 8]
00000000: 488b 25bf 2135 4f3f 3241 0f3f a0dd 73be
00000010: 3273 22c0 872c 41bd 716b 033e d096 27c0
00000020: 335a 32c0 9e3c aabe 2d48 aebd 9df1 093f
00000030: 70f5 fa3e b735 013e da9d bd3d 32bf 2dbe
00000040: 5026 2cbf 3c28 c13e d14e fabf 6304 cb3e
00000050: 4c55 e63e 503e dbbf 3c1e e13e 842c 343f
00000060: d920 7fbe 454d 09bf e857 aa3e 613a 65bf
00000070: a122 82bf fba1 fe3e 4e30 91be 3c8f 133f
00000080: e94d 0bc0 cf33 fc3e 196e 053f 61eb d43e
00000090: f32c 74be a60b 8dbf 205a 09bf 75e1 5abf
000000a0: 202a 6abf d04c 1bc0 b45d 7c3d 3430 d63e
000000b0: 7d31 4f3f e2d5 2abf 35e3 c8bf 7404 663f
000000c0: eb6f 313f bc21 f2be 039c 17be 4b8d ecbf
000000d0: b84a d13e 2307 0cc0 f19c acbf 0afc 2a3f
000000e0: 0dbc 5dbd 998a 5a3f 9960 193f 1db1 9ebf
000000f0: 8e5c 0ac0 a9a2 0ac0 32a3 91bf f435 2d3e
00000100: 599a 90bf 14d9 acbe 14af 8f3c f582 1e3e
00000110: 6dcd a4bf 89b3 343f c1fe 753f 03db 23bf
00000120: 8269 863f 5260 14c0 288d bebf 63b7 f0be
00000130: 9f3d b43d 5a72 1abe 7536 553f 3024 c03e
-0.6466565 0.80940443 0.55958855 -0.23815012 -2.538281 -0.047161605 0.12833954 -2.6185799
-2.7867553 -0.33249372 -0.0850986 0.538843 0.4901538 0.12618147 0.092586234 -0.16967466
-0.6724596 0.3772601 -1.9555303 0.39651784 0.4498695 -1.7128391 0.4396838 0.70380425
-0.24914874 -0.5363353 0.33270192 -0.89542204 -1.0166818 0.49732956 -0.28357166 0.57640433
-2.1766303 0.49258277 0.5212112 0.4158583 -0.23845272 -1.101918 -0.53653145 -0.8550027
-0.9147053 -2.4265633 0.0616128 0.4183365 0.8093489 -0.6673261 -1.5694338 0.89850545
0.693114 -0.47291362 -0.14805607 -1.8480619 0.40877318 -2.1879356 -1.3485395 0.6679083
-0.054134417 0.85367733 0.5991302 -1.2397801 -2.161899 -2.166178 -1.1377928 0.16915113
-1.1297103 -0.33759367 0.017539538 0.15479644 -1.2875191 0.7058645 0.9609185 -0.6400606
1.0500948 -2.318379 -1.4886827 -0.47014913 0.08800816 -0.15082684 0.8328622 0.3752761

l3.bias f4 [10]
00000000: 604c 60be 6d23 3cbe f099 823e 16ef c93d
00000010: fc62 673e 2ec9 ad3d 18df b73e 739e b23e
00000020: 11bb 55be 12d8 8f3e
-0.21904135 -0.18372889 0.2550807 0.09860055 0.22596353 0.084856376 0.35912395 0.34886512
-0.20872141 0.28094536
